New Group/model.tflite (tflite, 443652 bytes, 9 tensors)

sequential/conv2d/BiasAdd/ReadVariableOp f4 [32]
00000000: 0ac5 0eba 60ea af3d 60bd bb3d 5da9 3fbb
00000010: a81d c0b3 baf9 f6bb ecfd a5bd 797c 5abd
00000020: 6162 bb3d abd8 a0bd 0000 0000 d218 8d3d
00000030: 33f1 ba3d c2f7 2dbc 291e 6fbd e1aa cbb9
00000040: 514f d13d 5cd0 b73d a957 a53d 9c1a d7ba
00000050: 7fae 6e3d 714e ae3d 0a5c 86bd 4fcd a4bd
00000060: 4dd3 95bd a4aa d4bc 3747 5ebc eec3 66bb
00000070: 4d03 be3d 0333 abbd 4013 a23d 15ed b43d
-0.0005446231 0.08589625 0.0916698 -0.0029245235 -8.946091e-08 -0.007537094 -0.081050724 -0.053341363
0.09149624 -0.07853826 0.0 0.068895 0.09128036 -0.010618152 -0.058378372 -0.00038846492
0.102202065 0.08975288 0.080733605 -0.0016411128 0.05827188 0.08511055 -0.06560524 -0.08046972
-0.07315693 -0.025960274 -0.013566784 -0.0035211998 0.09277973 -0.08359339 0.07913828 0.08834282

sequential/conv2d_1/BiasAdd/ReadVariableOp f4 [64]
00000000: df5b 63b7 e7b6 683c 6fb9 8a3d c5f3 4abd
00000010: 3ecb 21bd cbdd 41bd cdea 2dbc e039 68b9
00000020: fa82 34ba 7b10 42ba 9687 aa3d a3dc 6cbb
00000030: a6c6 59bd e433 a83d 7cce 73bd b88a 8ab9
00000040: fa43 9a3d 9bb4 e1b6 7fa3 82bd 1373 2dbc
00000050: a186 3c3d 0000 0000 b9ba 553d 50a8 b03d
00000060: 904b 963d 146d 58b8 19ed 12b6 c868 a8ba
00000070: 8aa3 7abd 97e1 aa3d 17f7 94ba 46b1 6dbd
00000080: 1861 b13d 099e 81bd 2f6b 83bd 30e0 72bd
00000090: 7103 993d 3f88 aa3d 99de b6bb ed4b 90ba
000000a0: c204 c8b6 b972 02bc 742b 943d e857 b73d
000000b0: 72b1 b9bb f4bc 18bb d7d0 903d cadd 31bb
000000c0: 8d17 cd3d 78bc 6ebd 9706 0bbd c9ed 9a3d
000000d0: a5f9 84bd 46a9 9a3d 50ff b83d 834c 663d
000000e0: 68fb 1abb 0c57 8ab8 ff95 649f 7202 49bd
000000f0: 439c fdbb 6292 a43d 2ab6 74bd 0483 ab3d
-1.3551645e-05 0.014203764 0.0677365 -0.049548883 -0.039500467 -0.04733066 -0.010615063 -0.00022146804
-0.0006885972 -0.00074029685 0.08326642 -0.0036142252 -0.05316796 0.08213022 -0.05952309 -0.00026424765
0.07532497 -6.726548e-06 -0.06378841 -0.010586518 0.04602683 0.0 0.052180026 0.08625853
0.07338631 -5.16e-05 -2.1893704e-06 -0.001284861 -0.06119112 0.08343809 -0.0011365142 -0.05803039
0.08661097 -0.06328971 -0.06416928 -0.059295833 0.074713595 0.08326768 -0.005580735 -0.0011008956
-5.9610184e-06 -0.007961922 0.072348505 0.08952314 -0.005666905 -0.0023305984 0.07071083 -0.0027140253
0.100142576 -0.058285207 -0.03394183 0.07564885 -0.064929284 0.075518176 0.09033072 0.05622531
-0.0023648385 -6.5965665e-05 -4.8404952e-20 -0.049074598 -0.007739575 0.08035733 -0.059744038 0.083745986

sequential/conv2d_2/BiasAdd/ReadVariableOp f4 [128]
00000000: 86f2 22ba 96a5 64bb a39a 053e a925 6fbc
00000010: a20c 00bc 5db8 d0ba 0b09 02bc f0c3 94bc
00000020: 649e 34bc 2bb2 c4bc a32f 13bb ff2c 20bc
00000030: 15e4 053e f8bf 9bbc e5ca af3d 6a5c 2dbb
00000040: dde8 2e3e 376f 55b7 1ed2 c23d 3742 1dbc
00000050: 8d19 77bb 2b46 f8b9 53fa 9dbc befb 003e
00000060: c774 94bb 6266 cfbb ed1b 88b4 2c1a f53d
00000070: dc27 0f3e 4dec 083e 3873 d8bb 29ee 073e
00000080: 9ec2 c6bb 78f6 f93d b76b 0b3e 5363 bcbc
00000090: 7d04 edbb 864b 0d3e c8a4 ebbb bcee f0bb
000000a0: 397f afbc f67c b2bc e994 bc3d e3b7 67ba
000000b0: d1fb 113e 4712 e8b9 cff1 8aba 969f 013e
000000c0: 9208 4fbc 7422 adb7 d808 f3bb b701 1eb5
000000d0: b7a4 84bb cb3b 033e cffa 143e 198c 063e
000000e0: dce3 bcba 5c0d 00bc 5ef7 f3bb c254 073e
000000f0: 9941 9fbc af56 97bc 3c2d d53d c572 71bb
00000100: f31d 10b9 dced 0fbc 4106 77bc 4720 16bb
00000110: 0d64 093e 73cd a3bb fd6e a1bc ca0e 0cbc
00000120: 528b f4bb 4e17 123e bf2f 19bb 5ef1 64bb
00000130: 2a5b a1bb 6854 bdbc ac13 083e 6e3e 22bb
00000140: 766f 66bb e25d cd3d 475f e9bb e1a2 eeba
00000150: 9e1a ef3d 3ae1 81bb f866 93bc 20bf acbc
00000160: 6cd1 113e 2200 97bc f163 073e a7ee 9abc
00000170: 94e3 e73d 7002 4bbc 76ba aebc 3207 72ba
00000180: 7396 90bc 136f 42bc 6a87 103e f8f0 0a3e
00000190: fb09 02bb 8ae7 0a3e b43a 32bb d910 efb9
000001a0: d0d2 a6bc ce08 fdbb d6bc 5fb8 28fd bbbb
000001b0: 304f 92bc 9c47 91bc 18e1 28b5 b4ea 153e
000001c0: 549d 1bba 2d94 38b7 f4d1 18bb dcb1 a1bc
000001d0: 24d6 e83d 6ccb 38bc 80ba 04bb 8c8d 16ba
000001e0: 8fda 80bb a7cd bfbb 550e 28bc 88de e3bb
000001f0: c8d3 0e3e b3ff 15bc 2a41 99bc a131 b0bc
-0.00062159484 -0.0034888736 0.1304727 -0.014596381 -0.007815512 -0.0015924085 -0.007936726 -0.018159837
-0.011024091 -0.024010738 -0.0022458814 -0.009776353 0.13075288 -0.019012436 0.08583621 -0.0026452788
0.17081018 -1.2721684e-05 0.09512733 -0.009598306 -0.0037704438 -0.00047354525 -0.019284403 0.12596032
-0.0045305225 -0.0063293437 -2.5352293e-07 0.119678825 0.13980049 0.13371392 -0.006605532 0.13274445
-0.0060656806 0.12205213 0.13615309 -0.02299658 -0.007233201 0.13798341 -0.0071912743 -0.007352678
-0.02142297 -0.021788102 0.0920809 -0.0008839352 0.14256217 -0.00044264106 -0.0010600629 0.12658533
-0.012636321 -2.063925e-05 -0.0074168257 -5.886208e-07 -0.004047956 0.12815778 0.14548801 0.1313938
-0.0014411169 -0.007815685 -0.00744526 0.13215926 -0.01944046 -0.018473951 0.104090184 -0.003684209
-0.00013744067 -0.008784737 -0.015077175 -0.0022907422 0.13417073 -0.0049988567 -0.019706244 -0.008548448
-0.0074628973 0.14266703 -0.0023374406 -0.0034933905 -0.0049241977 -0.023111537 0.13288754 -0.002475645
-0.003516165 0.10027672 -0.0071219536 -0.0018206501 0.11674999 -0.0039636167 -0.017993435 -0.02108723
0.14240044 -0.01843268 0.13221718 -0.018912626 0.11322704 -0.012390718 -0.021329146 -0.00092326396
-0.017649865 -0.0118673025 0.14114156 0.13568485 -0.0019842375 0.13564888 -0.0027195634 -0.00045598185
-0.020364195 -0.007721997 -5.334321e-05 -0.0057369657 -0.017860025 -0.017734341 -6.291243e-07 0.14640313
-0.00059362245 -1.10017545e-05 -0.0023318501 -0.01973813 0.11368969 -0.011278968 -0.0020252764 -0.0005743138
-0.003932304 -0.005853373 -0.010257323 -0.006954018 0.13947976 -0.009155202 -0.01870783 -0.02150804

sequential/conv2d/Conv2D f4 [32, 3, 3, 3]
00000000: eba9 dc89 4e6b 1b87 b43b ef09 ce2a 9809
00000010: 1bf8 8689 b78b 3888 9c3f 4789 db86 0c09
00000020: 13d3 9009 c071 4609 a2b8 f308 445b 9309
00000030: d9c4 f408 2df1 ba07 37dd a707 8308 4f89
00000040: f850 df09 1651 3989 730e 3b09 d19d 6689
00000050: f254 cd89 4adb 1389 a5bc d488 2432 1309
00000060: da9a 9a87 4250 5c89 0895 4a87 4c57 213d
00000070: 723b 8a3d 16e2 2ebd 81bd c83c f354 4f3d
00000080: 8976 94bd f617 86bd 5386 b63d 9e7c 4f3b
00000090: 2dde 8e3c f510 1abd 1c12 95bd 01b4 93bd
000000a0: 3a89 a23d d82d cdbc 71fb 64bd 1ed4 c4bc
000000b0: af54 5cbc 806d c1bb b7b7 253d 1c86 98bd
000000c0: a8cd 29bd 87d8 b13c ccd0 063d 3344 0aba
000000d0: d21c 9d3c 8843 bbbc bde1 42bb 7d52 583b
000000e0: 0a6e 33bc 142e 88bb ea3e e03b 7c4d 27bc
000000f0: 9205 4fbc eb5f fb3b befa 1dbc bb9e 49bc
00000100: de6a 0f3c 0893 47bc d461 26bc 81f8 a33b
00000110: f6e5 87bc 583e 9cba daae 143b fb32 33bc
00000120: e766 9cbc 0e3a 903b 01df 06bc 3dec 7bbc
00000130: a749 7c3b 6814 2cbc dff4 43bc 2e82 e63b
00000140: a5b0 90bc 5177 2f88 d113 9009 8631 4209
00000150: 1fd5 0587 4dc6 5c07 d213 a409 31b6 1809
00000160: ac70 a108 e435 4109 3281 da88 c436 8a07
00000170: 4f50 ac09 4156 d489 142b e487 ae6a 3089
00000180: 6789 9709 04f6 0709 aaa2 9509 e118 2c09
00000190: cedc 8288 9316 5209 6620 c109 ec17 c108
000001a0: f0d6 eb86 7d51 b389 c355 6709 ca7c 8e09
000001b0: 28d4 2e09 f8f5 0606 b780 8b89 a4ee 2388
000001c0: e0d0 0089 45c2 d808 212f 0289 4d33 0409
000001d0: 50c6 de05 9081 ae88 1e23 3289 2966 b809
000001e0: 0857 1a08 a380 2a89 239b ce09 127b bd88
000001f0: 5ef0 9288 21da a088 948f 0989 d162 9488
00000200: e8c4 fc88 2b31 0489 a093 2309 bede a208
00000210: 1f1a ac88 e841 6d09 59fe 9889 1dfa 1009
00000220: 581b 2509 90ff 9289 9dec db08 e269 4c89
00000230: 62b1 0409 7d96 d008 5c55 6d89 c4c8 2209
00000240: 851f ee08 b598 d288 45d4 8d08 065f 8c08
00000250: ffb8 8707 118f cd87 e3c4 c689 9552 e107
00000260: d981 ba88 280d 0009 b552 fd88 48f7 4608
00000270: 5c5b 3809 537d f308 aecd 0a89 b884 6507
00000280: 65ca a989 ea31 ed89 200e 553c 2d3e 523d
00000290: a0b5 823d 34c6 55bd 975f 64bd c6ee f93b
000002a0: c4a9 813d 76ee 34bd 83c9 623d afc6 7e3d
000002b0: 2310 2dbd e68b 893d cadf b43d 1b77 6d3d
000002c0: f14e ae3d a5d6 c03c 58b6 26bd 3b65 c53a
000002d0: c385 8a3d b58c 8f3c 8881 2b3c 8b7c 95bb
000002e0: 2271 79bd e1ae 013d 9c30 923c de99 03bc
000002f0: 7ace c83d 9df8 183c 95a5 f03b dded 46bc
00000300: 7467 0d3c 8791 ff3b 4e13 47bc 0bbf 133c
00000310: 7428 e93b 442c 47bc b117 0d3c 8601 fc3b
00000320: 26d8 46bc dd88 1e3c d611 fd3b dc03 47bc
00000330: 8b60 153c ca4e f93b 001b 47bc 0b5f 143c
00000340: 1c8c f63b 44c1 46bc 25dd 0c3c 6724 013c
00000350: aaf6 46bc 9319 1c3c 4eb6 033c 57cb 46bc
00000360: 4bc9 4fbd 823b ae3c bc3f 6d3c 9602 d73b
00000370: 0bbc 433d 9f2a 493c 868b 66bd 931a f7bc
00000380: eac1 06bd 226b 8cbc 4cd6 383d cc54 83bc
00000390: 080d 1dbd 0e76 6a3d 5b8f c2bc e712 84bc
000003a0: 0c22 ffbc 214e dcbb a519 803c fe82 4b3d
000003b0: 8be2 50bd 00ff 88bc 4158 5b3c b480 c7bc
000003c0: 3a0b b2bc 6972 e63c 9063 c2bc 5714 2cbc
000003d0: 058f 26bd bbea 943c 0c2e b53c 0ea8 593c
000003e0: 50ff b53c 9500 9c3c 03b2 20bd a4b6 b13c
000003f0: e4d4 eb3c e83c 05bc 4c90 f63b b9e5 d03b
-5.3122864e-33 -1.1692438e-34 5.75933e-33 3.6632922e-33 -3.2492644e-33 -5.553472e-34 -2.3983663e-33 1.6915296e-33
3.4865232e-33 2.3886868e-33 1.46684375e-33 3.547479e-33 1.47314945e-33 2.812792e-34 2.5257386e-34 -2.492072e-33
5.376144e-33 -2.2306691e-33 2.25161e-33 -2.7759448e-33 -4.9431837e-33 -1.779759e-33 -1.2803636e-33 1.7718057e-33
-2.3262358e-34 -2.6519274e-33 -1.5240587e-34 0.039389893 0.067496195 -0.04269608 0.024504425 0.050618123
-0.07249171 -0.06547539 0.08912339 0.003165997 0.017439926 -0.037613828 -0.07278845 -0.072120674
0.0793633 -0.025046274 -0.055903856 -0.024026927 -0.0134479245 -0.005902946 0.040458407 -0.07447454
-0.041455895 0.021709694 0.032913968 -0.00052744447 0.019178782 -0.02285935 -0.0029736601 0.0033008151
-0.010951528 -0.0041558836 0.0068434374 -0.010211345 -0.012635605 0.0076713464 -0.009642301 -0.012305911
0.0087535065 -0.012181051 -0.01015516 0.005003989 -0.016589146 -0.0011920435 0.0022687227 -0.010937448
-0.019092036 0.004401452 -0.008231879 -0.015376148 0.0038496049 -0.010502912 -0.011960237 0.0070345616
-0.017662356 -5.2802403e-34 3.4685374e-33 2.3375186e-33 -1.0068439e-34 1.6609236e-34 3.9500203e-33 1.8382e-33
9.716324e-34 2.325687e-33 -1.3150771e-33 2.079612e-34 4.1483016e-33 -5.1118256e-33 -3.4330946e-34 -2.123539e-33
3.648114e-33 1.636571e-33 3.6023414e-33 2.0715445e-33 -7.876001e-34 2.5288445e-33 4.6493527e-33 1.1621389e-33
-8.8713e-35 -4.3169314e-33 2.7845939e-33 3.4302608e-33 2.1044244e-33 2.5383308e-35 -3.3584076e-33 -4.933155e-34
-1.5505652e-33 1.30457e-33 -1.567034e-33 1.5913044e-33 2.0949628e-35 -1.0502704e-33 -2.1442483e-33 4.439246e-33
4.6444994e-34 -2.052349e-33 4.9738586e-33 -1.1403957e-33 -8.843565e-34 -9.680932e-34 -1.6558285e-33 -8.930658e-34
-1.5212991e-33 -1.591204e-33 1.9689824e-33 9.802387e-34 -1.03580145e-33 2.8558826e-33 -3.6831856e-33 1.7450972e-33
1.987401e-33 -3.538855e-33 1.3236211e-33 -2.4605393e-33 1.5972327e-33 1.2553924e-33 -2.8567973e-33 1.959444e-33
1.4331514e-33 -1.26748165e-33 8.536033e-34 8.448283e-34 2.0421273e-34 -3.0929059e-34 -4.7851918e-33 3.3902775e-34
-1.1224995e-33 1.5413626e-33 -1.5246328e-33 5.9874135e-34 2.2191151e-33 1.4654494e-33 -1.6707856e-33 1.7267048e-34
-4.08756e-33 -5.7102614e-33 0.013003856 0.051328827 0.063822985 -0.052190974 -0.055755224 0.007627341
0.06331208 -0.044172727 0.055367958 0.0622012 -0.042251717 0.06716137 0.08831747 0.057974916
0.08511151 0.02353985 -0.04070124 0.0015060076 0.06763794 0.017523149 0.010467894 -0.004561966
-0.060898907 0.03166092 0.017845444 -0.00803229 0.09805007 0.009336618 0.0073439577 -0.012141672
0.008630622 0.0077993306 -0.012150599 0.009017716 0.007115418 -0.01215655 0.0086116055 0.0076906113
-0.012136495 0.009676185 0.0077230735 -0.012146916 0.009117256 0.0076082693 -0.012152433 0.009055863
0.0075240266 -0.012131039 0.008597647 0.007882214 -0.01214377 0.009527582 0.00803907 -0.012133441
-0.050729077 0.02126861 0.0144805275 0.0065615876 0.047786754 0.012278228 -0.056285404 -0.030164039
-0.032899775 -0.017140929 0.045126244 -0.016031645 -0.038342506 0.057241492 -0.023749998 -0.016122295
-0.031144165 -0.006723181 0.015637228 0.04968547 -0.0509973 -0.016723156 0.013387741 -0.024353363
-0.021733869 0.028130727 -0.023729116 -0.010502896 -0.040663738 0.018178334 0.022116683 0.013284696
0.022216469 0.019043246 -0.039232265 0.021693535 0.028788038 -0.008132197 0.0075245257 0.0063750413

sequential/conv2d_1/Conv2D f4 [64, 3, 3, 32]
00000000: 7b5b 8409 5db7 df88 a21c a189 d6a1 bd08
00000010: 68de 3889 80f3 f588 0c42 f009 8c21 7e09
00000020: 2f21 8508 fe84 1089 02bc 3409 3516 d709
00000030: 6249 ed88 df13 9109 3f61 d608 f6a8 b609
00000040: bac4 f208 1420 5e89 2442 cf07 1848 6888
00000050: 92f8 c009 6ae7 ee89 6ed3 b009 ad62 e209
00000060: a1ad 3d08 13d7 8d09 65bf 4c09 ab57 2c09
00000070: 874a a209 57b5 1789 8078 f089 5fdc 8d89
00000080: 7479 5909 486c e507 8cf7 ce09 cc29 2189
00000090: e04b 3787 d2d9 db88 6ccc 1309 b433 2d09
000000a0: 27f3 c589 18f8 a689 7a77 f108 db0a b809
000000b0: c82d db88 1af6 da89 7427 b008 38d8 7389
000000c0: 2c3d 0588 3767 b489 4e43 bb09 b04a 6409
000000d0: c655 3108 2440 5409 f61b 3389 957b af89
000000e0: b952 dd89 119a a889 72d7 1e89 cb9b 8189
000000f0: ed90 e609 ee1b 0109 01ba ba09 a09e 0287
00000100: f63f c009 8f0d 7989 630c ec09 6732 ab87
00000110: 8e2e 8309 53c2 fe88 4cf5 a308 9ca3 d389
00000120: 0ed0 be09 f3c8 a809 46d8 6009 f452 5409
00000130: 1ccb d809 9a9b c788 87de fb88 2ab8 d189
00000140: 020c 9c09 3047 2a88 25fc 4908 cead 6f89
00000150: 2c57 fd88 48fd 1609 b918 1809 0c04 2f89
00000160: afb9 1309 6d0e 9388 0c72 c488 5cf3 5389
00000170: 9632 e509 0e2a 9789 4001 c009 908d 9009
00000180: 2605 4b89 b2a1 2789 4f74 a389 8d28 6109
00000190: c455 c709 8d32 a688 c606 a508 a4de 7289
000001a0: 24c5 6089 05f2 b009 0a44 9b08 62c0 0689
000001b0: fdb2 3488 c3e4 a388 905f 0508 7215 7d89
000001c0: ec46 2989 6b0d b009 f039 8a08 fc03 0089
000001d0: 28d6 b409 86b7 0b88 9e6d 9c09 0ce9 9389
000001e0: eaad e889 233a 1289 1514 1209 b059 5389
000001f0: c9c0 c109 acb0 b109 db72 da89 203d 3a09
00000200: f03b 8909 857e 9489 3c27 5409 7059 8708
00000210: 3ffc a809 d617 6389 2553 b309 39e7 ea89
00000220: 9abc 0c88 800d a906 c89b f008 6b49 7789
00000230: 4ccf 1788 056d 8209 0c11 7288 b87b c588
00000240: 0ea1 a787 b893 c709 8e11 7288 ba96 9289
00000250: f0c2 ba89 78f3 a489 14a4 c509 e81a 9089
00000260: b996 cb08 b52f c989 29ee 1589 5559 e709
00000270: 54d0 9488 62e4 f009 9f38 3a88 a676 ba89
00000280: 52d9 5f89 80cd c486 60e5 bf88 c79c 0e09
00000290: c141 f008 8054 3008 0d87 3989 407a 8a06
000002a0: 1dbc 2c88 fe72 e789 05af 8709 4260 8688
000002b0: 30ee 1e07 f4c2 8e89 d49f 9a87 d1bd 8589
000002c0: e92c 3509 9549 8609 5282 b508 418f cd88
000002d0: 2059 ba87 0292 0388 521f 1d09 deaa 8309
000002e0: 7d38 d289 3640 ed09 36d6 6d09 0625 f009
000002f0: bad8 8409 48b8 2289 fc67 e109 cbc2 8389
00000300: 3a94 a609 36a2 d908 ba3f 9809 7051 3809
00000310: 3c29 e409 280d c287 b096 ce09 5d54 1509
00000320: 1eca d789 ee87 df09 e175 c588 8cfb 7009
00000330: 9278 2389 a7c4 d809 2877 1608 ffb0 e489
00000340: 07d1 9189 5101 ff88 9669 7f09 baf6 6309
00000350: 3a6b 9a09 fa75 6309 c53c 4c89 c0cf eb89
00000360: c3a7 9a89 561a 8a89 f091 5989 3ea8 ad88
00000370: 5682 ce89 ca1d aa08 2f1b cc09 4ab4 1209
00000380: 7ad9 eb89 e47b 0a08 5221 7109 34e5 5089
00000390: f016 3b89 3695 3309 7843 e406 01e5 b989
000003a0: b86e 8889 23d9 7988 b0c9 4c88 bf6c a209
000003b0: 9935 7989 ec5d 6509 4472 9988 89df 1e88
000003c0: 8cdf f389 992c 1089 5966 b209 e271 e489
000003d0: 90d5 3a89 b09c 8209 1021 8c89 9a44 cf89
000003e0: 9225 e589 1c2b c788 8649 9a09 423f cc88
000003f0: d296 8f09 1635 ea89 49d6 b408 e6ea 8889
3.1863872e-33 -1.3464433e-33 -3.8786266e-33 1.1413071e-33 -2.225277e-33 -1.4802648e-33 5.784001e-33 3.0589912e-33
8.012448e-34 -1.7395902e-33 2.1755113e-33 5.178025e-33 -1.4281171e-33 3.4926167e-33 1.2902519e-33 4.3973796e-33
1.4611095e-33 -2.6737361e-33 3.1184772e-34 -6.9899706e-34 4.6456073e-33 -5.7514037e-33 4.2569286e-33 5.4500315e-33
5.707922e-34 3.414677e-33 2.46456e-33 2.0744968e-33 3.9070167e-33 -1.826123e-33 -5.7891216e-33 -3.415175e-33
2.6177532e-33 3.4519732e-34 4.9825488e-33 -1.9399323e-33 -1.3789687e-34 -1.3231792e-33 1.77906e-33 2.0848428e-33
-4.7654684e-33 -4.0196353e-33 1.4532749e-33 4.4306597e-33 -1.3191346e-33 -5.2713024e-33 1.060189e-33 -2.9351727e-33
-4.009514e-34 -4.3430487e-33 4.5081905e-33 2.747962e-33 5.3364826e-34 2.554873e-33 -2.1559488e-33 -4.2245934e-33
-5.3281607e-33 -4.0589412e-33 -1.911986e-33 -3.1202127e-33 5.5506773e-33 1.5540943e-33 4.495279e-33 -9.826729e-35
4.6282467e-33 -2.997866e-33 5.682658e-33 -2.5758844e-34 3.1580883e-33 -1.5332754e-33 9.867875e-34 -5.095026e-33
4.593649e-33 4.06335e-33 2.706471e-33 2.5557576e-33 5.219111e-33 -1.2013459e-33 -1.5158829e-33 -5.0488107e-33
3.7566926e-33 -5.1241195e-34 6.078263e-34 -2.8850301e-33 -1.5247378e-33 1.8174686e-33 1.8307959e-33 -2.1066762e-33
1.778179e-33 -8.850632e-34 -1.1823133e-33 -2.5512628e-33 5.5177315e-33 -3.6391476e-33 4.6223494e-33 3.4799864e-33
-2.4437657e-33 -2.0177923e-33 -3.93502e-33 2.7102457e-33 4.798816e-33 -1.0002646e-33 9.932169e-34 -2.9234376e-33
-2.7055714e-33 4.2598053e-33 9.344719e-34 -1.6220121e-33 -5.437718e-34 -9.863987e-34 4.0135565e-34 -3.046385e-33
-2.0375982e-33 4.2383077e-33 8.319194e-34 -1.5409313e-33 4.3534815e-33 -4.204452e-34 3.7658717e-33 -3.560812e-33
-5.6015516e-33 -1.7601446e-33 1.7583553e-33 -2.5440372e-33 4.6644354e-33 4.277734e-33 -5.25896e-33 2.2417676e-33
3.3037915e-33 -3.5748682e-33 2.553702e-33 8.146044e-34 4.068174e-33 -2.7335339e-33 4.317087e-33 -5.655089e-33
-4.2351418e-34 6.359057e-35 1.4481099e-33 -2.9766064e-33 -4.5683586e-34 3.1398883e-33 -7.2844265e-34 -1.1885592e-33
-2.5222027e-34 4.804642e-33 -7.284486e-34 -3.5289964e-33 -4.496119e-33 -3.971052e-33 4.7580323e-33 -3.469204e-33
1.2253053e-33 -4.8433853e-33 -1.8047205e-33 5.5695235e-33 -8.956404e-34 5.799267e-33 -5.6038897e-34 -4.4889448e-33
-2.6944832e-33 -7.402896e-35 -1.154932e-33 1.7166345e-33 1.4459933e-33 5.3062403e-34 -2.2332066e-33 5.208946e-35
-5.1980493e-34 -5.5719365e-33 3.2664655e-33 -8.087462e-34 1.1956596e-34 -3.436859e-33 -2.3265283e-34 -3.2197088e-33
2.18082e-33 3.2328523e-33 1.0924179e-33 -1.23716675e-33 -2.8038552e-34 -3.959301e-34 1.8912914e-33 3.1697786e-33
-5.0608782e-33 5.711606e-33 2.8628559e-33 5.7812715e-33 3.1981653e-33 -1.958669e-33 5.4264566e-33 -3.1720285e-33
4.0102438e-33 1.3098348e-33 3.6652597e-33 2.2186486e-33 5.492778e-33 -2.9197608e-34 4.9734402e-33 1.797489e-33
-5.1949437e-33 5.3813125e-33 -1.1884219e-33 2.9007226e-33 -1.9677103e-33 5.218504e-33 4.527905e-34 -5.505545e-33
-3.510405e-33 -1.5347564e-33 3.0744155e-33 2.7440141e-33 3.7174987e-33 2.7379603e-33 -2.458418e-33 -5.676956e-33
-3.7231914e-33 -3.3247058e-33 -2.6189044e-33 -1.0451612e-33 -4.9715263e-33 1.0238506e-33 4.9136777e-33 1.7658882e-33
-5.6778706e-33 4.1673497e-34 2.9024987e-33 -2.514486e-33 -2.2520091e-33 2.16165e-33 8.5863204e-35 -4.4752484e-33
-3.284493e-33 -7.5185955e-34 -6.16261e-34 3.9102346e-33 -2.9997486e-33 2.7609034e-33 -9.235216e-34 -4.780916e-34
-5.8710345e-33 -1.735434e-33 4.294819e-33 -5.49961e-33 -2.2489352e-33 3.144371e-33 -3.3734866e-33 -4.989795e-33
-5.5165076e-33 -1.1987012e-33 3.7143293e-33 -1.2292675e-33 3.456783e-33 -5.6383373e-33 1.0883734e-33 -3.2961706e-33

sequential/conv2d_2/Conv2D f4 [128, 3, 3, 64]
00000000: 8003 b689 45a7 5309 9c71 cb06 fead b408
00000010: 137d 7389 40a8 b307 089a 4f09 c2df c508
00000020: 32e1 0009 6907 d688 df46 8a89 22d8 8c89
00000030: 282e d409 d542 e288 8f05 9d08 38c1 0a07
00000040: ccdc df89 15be 2889 b4d7 f988 0c64 c289
00000050: 7020 4189 1a8b 8f09 726a ac08 7ad2 de09
00000060: 3673 4789 a85d 1008 4c38 5e89 740a 5189
00000070: abb7 3a09 2ac3 6c89 7694 c089 b411 b089
00000080: 8388 8789 49b9 8d88 f630 0a09 6aaa c789
00000090: c2f8 c408 39e0 6889 70d7 2d09 24d9 9289
000000a0: 7ee1 0109 79b5 cf09 2d66 e289 ca72 c289
000000b0: 4020 5209 02da 9389 0828 c407 04ff 0a09
000000c0: df9a 3e88 d742 8c89 78d3 0389 681a 4e09
000000d0: 9d96 8089 e27e a688 c4f7 f488 c650 8a88
000000e0: 98ed a589 4e97 8d89 60dd 2089 f639 8989
000000f0: aa16 ce87 9033 1708 8fe4 bb88 80b5 3d88
00000100: c9ef 9c88 82ac 2a89 b0e7 8b09 a2b7 df89
00000110: 80fd 7e09 99b3 7789 2507 1089 a9e9 f508
00000120: 0edb 0d09 82a0 fe08 1eac 6409 7cec 9509
00000130: 7cc3 5409 a0d4 8808 10f3 c889 174f d288
00000140: db1a 9d09 6d0a 5e09 9a1e 5f89 fe53 2d08
00000150: b40e 3489 6498 f209 c799 dc88 874a c809
00000160: 4c98 8886 c964 8d89 8e01 fd88 ddcd d789
00000170: f0ef 2d89 d29e 6007 a3f9 2e09 dd7e ed08
00000180: 850f 4209 8835 8a89 8379 5d08 8c90 da09
00000190: 6eef f908 e028 e589 3e1d c707 ed33 4b09
000001a0: 84dc 0a09 1b07 b888 6247 6f89 8419 0789
000001b0: 5f52 d489 f96e 1189 fa06 3209 2bbe a889
000001c0: cb2f 7e09 6243 4289 426f 5889 1e17 9208
000001d0: 2ce2 9589 e3f0 4b89 1733 cb08 d0d2 2189
000001e0: 1a1e 1288 d048 0f09 4ce8 3308 1ad9 aa09
000001f0: 8776 6b89 493d 8989 6704 8c89 5b95 6c89
00000200: 80b6 c287 9329 5e89 902e 0f88 f03f cb89
00000210: 1425 1409 7233 4c08 dee4 3409 a2c7 9089
00000220: 0cf4 9a09 2e4e 5809 e8eb c709 00dd 8207
00000230: 4f84 9408 c0c2 b508 e0d8 b909 f136 5707
00000240: e473 3809 96a3 f708 11c9 4289 dcd8 9609
00000250: 741d 8409 eccc a908 0025 8708 d72e c087
00000260: da02 e508 3df1 2308 067f a009 9735 d908
00000270: 3998 d889 851d 1f09 3d8b e009 88cf 8688
00000280: 2c36 7208 faf7 b409 c0c8 e309 f49a bc09
00000290: 80a8 1487 bf40 f787 2b6d 9f89 115b c789
000002a0: 3c2d 9789 e029 9908 cd91 1e09 d421 4689
000002b0: b103 1309 7a90 7a08 9b7e 9a89 d736 3589
000002c0: 884b 9789 5a1c b907 2b23 8289 0f0d 9689
000002d0: 9607 ec89 785b 6a88 1569 8489 d4e5 8d09
000002e0: 0a5e e788 956d 1c89 2f2d 1189 fc44 3409
000002f0: 3502 7509 fc37 0e88 9d1a bc09 c8be c188
00000300: 3646 a588 9419 a209 7502 df89 b2b3 5608
00000310: aa5d 8908 21e0 a989 ff0d 9308 413e 9189
00000320: e605 5708 389e bc08 47ae 0408 16ef 0c09
00000330: b444 8208 697e 8889 e53a 4c09 2231 d009
00000340: ef13 6189 8eed 3289 a564 8389 a05e 0789
00000350: 0832 ad88 2aa1 cc08 5b4c 0788 628a 9189
00000360: 20f3 9989 3d49 ee08 68f5 2e08 10b3 cf88
00000370: 09d7 c009 701c 0789 8592 2009 b0e0 be09
00000380: b934 9609 e57e 1b89 c7de ae07 6425 a707
00000390: 595e 8789 a67d 1e89 1bba ea88 f47e 8209
000003a0: a381 ab88 e0cf 8689 b831 1a87 6a40 6f89
000003b0: 9aac 6589 92bd 8e09 6b3d f109 a833 e888
000003c0: 75b3 c789 524d f188 aa2f 0b09 2dad 8c88
000003d0: 235a 1209 bb28 c488 8013 3c89 5022 a609
000003e0: 89da c309 5ea8 e589 7bbe 4c09 9c7d 1f89
000003f0: 0c67 8b89 d374 db89 f436 0809 9e6f c188
-4.3818198e-33 2.547685e-33 7.6527047e-35 1.0874261e-33 -2.930887e-33 2.7031815e-34 2.4989144e-33 1.1909111e-33
1.5513326e-33 -1.2881399e-33 -3.328894e-33 -3.3907024e-33 5.108055e-33 -1.3617592e-33 9.450401e-34 1.0438748e-34
-5.3892934e-33 -2.031164e-33 -1.5036854e-33 -4.6797885e-33 -2.3246782e-33 3.455681e-33 1.0376899e-33 5.3642487e-33
-2.4007926e-33 4.3443516e-34 -2.6748749e-33 -2.5162375e-33 2.2475296e-33 -2.8499232e-33 -4.636193e-33 -4.2387107e-33
-3.2628443e-33 -8.529689e-34 1.6634167e-33 -4.8067764e-33 1.1854804e-33 -2.8031413e-33 2.0925416e-33 -3.535242e-33
1.5633836e-33 5.0004093e-33 -5.4503607e-33 -4.681175e-33 2.5292994e-33 -3.5593976e-33 2.951433e-34 1.6731054e-33
-5.7358095e-34 -3.376663e-33 -1.5867984e-33 2.4808764e-33 -3.0956515e-33 -1.0020592e-33 -1.4743465e-33 -8.324563e-34
-3.9945737e-33 -3.40868e-33 -1.936339e-33 -3.3036057e-33 -3.1008756e-34 4.550052e-34 -1.1308387e-33 -5.708847e-34
-9.445282e-34 -2.0544118e-33 3.368091e-33 -5.3857985e-33 3.0693333e-33 -2.981599e-33 -1.7336729e-33 1.4800334e-33
1.7075257e-33 1.5324804e-33 2.752543e-33 3.6092834e-33 2.5610488e-33 8.23519e-34 -4.8376823e-33 -1.2657509e-33
3.782163e-33 2.672718e-33 -2.6857037e-33 5.2159026e-34 -2.1673625e-33 5.840269e-33 -1.3276921e-33 4.8218334e-33
-5.1381294e-35 -3.4039293e-33 -1.5227249e-33 -5.195296e-33 -2.0936936e-33 1.689856e-34 2.1061867e-33 1.4293744e-33
2.3359198e-33 -3.3272632e-33 6.6647605e-34 5.2617522e-33 1.5042432e-33 -5.5168183e-33 2.995938e-34 2.4459652e-33
1.6714832e-33 -1.1075768e-33 -2.8802143e-33 -1.6262031e-33 -5.1114605e-33 -1.750592e-33 2.1429251e-33 -4.0623362e-33
3.059661e-33 -2.3383584e-33 -2.6052367e-33 8.79249e-34 -3.6083136e-33 -2.45485e-33 1.2229629e-33 -1.9478794e-33
-4.397066e-34 1.7247235e-33 5.4138917e-34 4.1130173e-33 -2.8342827e-33 -3.3039183e-33 -3.3707914e-33 -2.8477693e-33
-2.929714e-34 -2.6741826e-33 -4.308723e-34 -4.89306e-33 1.7832286e-33 6.144949e-34 2.1774325e-33 -3.4854473e-33
3.7303652e-33 2.6036814e-33 4.8129353e-33 1.9690118e-34 8.938532e-34 1.0939327e-33 4.474108e-33 1.6190948e-34
2.2202686e-33 1.4904231e-33 -2.3446442e-33 3.631512e-33 3.180554e-33 1.0219494e-33 8.133716e-34 -2.891648e-34
1.3783107e-33 4.9334603e-34 3.863805e-33 1.3072811e-33 -5.2143258e-33 1.9152809e-33 5.4056977e-33 -8.113622e-34
7.2887905e-34 4.356662e-33 5.4837047e-33 4.540507e-33 -1.11838e-34 -3.7202484e-34 -3.838052e-33 -4.7993146e-33
-3.6394466e-33 9.218197e-34 1.9087113e-33 -2.3849289e-33 1.7696217e-33 7.540147e-34 -3.719321e-33 -2.1812868e-33
-3.6422957e-33 2.785237e-34 -3.1329433e-33 -3.6123467e-33 -5.6822067e-33 -7.0524335e-34 -3.1876663e-33 3.4160645e-33
-1.3924915e-33 -1.8829342e-33 -1.7474985e-33 2.1699148e-33 2.949184e-33 -4.279738e-34 4.528438e-33 -1.1660617e-33
-9.947083e-34 3.9024135e-33 -5.3687608e-33 6.4609513e-34 8.267408e-34 -4.089604e-33 8.850531e-34 -3.4966024e-33
6.4706143e-34 1.13520355e-33 3.9927167e-34 1.6964305e-33 7.840242e-34 -3.2859685e-33 2.4583299e-33 5.0120383e-33
-2.7092763e-33 -2.1537668e-33 -3.163175e-33 -1.6294526e-33 -1.0423821e-33 1.2315693e-33 -4.071484e-34 -3.5037615e-33
-3.7062044e-33 1.4341322e-33 5.2649694e-34 -1.2500457e-33 4.6424537e-33 -1.6263405e-33 1.9328193e-33 4.595213e-33
3.6160767e-33 -1.8717112e-33 2.6311547e-34 2.5149343e-34 -3.2588792e-33 -1.9077638e-33 -1.4127116e-33 3.1415748e-33
-1.0322166e-33 -3.245481e-33 -1.1600283e-34 -2.8798866e-33 -2.764603e-33 3.4363528e-33 5.8076397e-33 -1.3975136e-33
-4.8076268e-33 -1.4522838e-33 1.6753928e-33 -8.466657e-34 1.7616493e-33 -1.1805897e-33 -2.2638846e-33 3.9995314e-33
4.7150052e-33 -5.5288076e-33 2.464517e-33 -1.919799e-33 -3.3559938e-33 -5.2832193e-33 1.6396243e-33 -1.1642006e-33

sequential/dense/BiasAdd/ReadVariableOp f4 [128]
00000000: 7f1a 62bc 8f7f 8c3d 6836 ca3c 2dfb e23d
00000010: 8275 8dbc 3472 d13d cd2c bfba 72a0 923c
00000020: 70e3 13bc 1203 56bb c9b3 a73c 16c3 5dbc
00000030: 9e60 8fbb 70ba 8e3c 2b54 ffba 2659 d63d
00000040: c613 83bc 19da cb3c ef29 58bb 1d5d cc3c
00000050: 661f e33d 769e e43d ea92 b83c f085 4fbb
00000060: 8f07 103d d4f9 59bc 8501 bd3c e1e2 86bb
00000070: 5d65 e53d 0997 b63d a217 50bb 5f32 aabb
00000080: d878 49bb 37fd 09bc c5b9 f43d f6b9 e23d
00000090: 431f 50bb cb2b 4fbb 9aa2 9a3c 0000 0000
000000a0: f1fb df3d e80e aa3c a7be 9d3c e372 b23c
000000b0: eba8 cd3d 8334 a03c ed73 8cbc 7b11 bf3d
000000c0: 5c8a 6f3c 9139 cc3d 1ca2 bf3c 0be7 da3d
000000d0: 7d6e d83d 3edb 9f3c 6b8f 49bb aab4 49bb
000000e0: a509 c13c dbee 823c e9a2 cb3d 41ce b83c
000000f0: 056c 23bb 39ce c8bc feeb d03d 1a61 0ebb
00000100: a51b de3d cf79 8c3c 946b 80bc 3d9b 25ba
00000110: 27ee e53d 1209 9f3c 7373 ba3c e77e a33c
00000120: 27ba cb3d f239 dd3d 256f d63d f48b df3c
00000130: 8356 dc3d eeff 08bc e7c2 7d3c 214c e53d
00000140: d14d 8c3c 6c0a 50bb f520 a1bc e63a b93c
00000150: e670 043d 1d81 973c 4954 d63c eda0 9d3c
00000160: 3c09 e33d 2208 c1bb d6ea cb3c 3079 a13c
00000170: f0db e33d c234 2fbb 0528 a43c 07b6 77bc
00000180: ac93 e93d 9e62 833c 1dc1 d83d 9999 be3c
00000190: 4bf8 cb3d bc3a a43d 0000 0000 8235 eb3d
000001a0: 01be d53d d705 dc3d 2a30 5ab9 a7ff faba
000001b0: 3d24 db3d ebf5 74bc 7600 9abc e5e6 f93d
000001c0: c4ff db3d 835b 543c 1965 3f3c 597e 763c
000001d0: f33f 723c 4d7d e63d 4e10 4dbb 1398 89bc
000001e0: b222 ce3d 8887 e63d 3499 db3d 01e8 e23d
000001f0: 848c 8ebb 1f6b e13d a9ae fe3c e142 c73d
-0.0138002625 0.06860267 0.024684146 0.11083064 -0.017267946 0.10226861 -0.0014585495 0.017898772
-0.009026393 -0.0032655639 0.02047147 -0.013535282 -0.0043755313 0.017422885 -0.001948004 0.104662225
-0.01600064 0.02488427 -0.0032983979 0.024946744 0.11089973 0.111630365 0.022530992 -0.0031665526
0.03516346 -0.013304193 0.023072014 -0.0041164015 0.11200974 0.089155264 -0.0031752368 -0.005193993
-0.0030742195 -0.0084221875 0.11949495 0.110706255 -0.0031756915 -0.0031611796 0.018876363 0.0
0.10936726 0.020759061 0.01925595 0.021783298 0.10041984 0.01955629 -0.017145121 0.09329506
0.01462039 0.099719174 0.02339273 0.10688599 0.10567949 0.019513723 -0.003075565 -0.003077785
0.02356417 0.015983036 0.09943182 0.022559287 -0.002493621 -0.024512397 0.10201262 -0.0021725358
0.108451165 0.017147927 -0.015676297 -0.0006317383 0.112270646 0.019413505 0.022760129 0.019957973
0.09947615 0.10802068 0.10470418 0.027288415 0.10758688 -0.0083618 0.015488363 0.11196161
0.01712695 -0.0031744493 -0.019669035 0.022611093 0.03233423 0.018494183 0.026163237 0.019241774
0.11085746 -0.005890862 0.024892252 0.019711107 0.11125934 -0.0026734327 0.020038614 -0.015119082
0.11405119 0.016038235 0.105837084 0.0232666 0.099594675 0.08019015 0.0 0.11484815
0.10436631 0.10743301 -0.00020808043 -0.0019149677 0.10700271 -0.01495121 -0.018799048 0.12202243
0.10742143 0.012961271 0.011681818 0.015044772 0.0147857545 0.11254368 -0.0031290236 -0.016796147
0.10065211 0.11256319 0.107225806 0.110794075 -0.004350247 0.1100676 0.031089144 0.09729553

sequential/dense/MatMul f4 [128, 128]
00000000: ccf5 1307 68c0 9985 5c49 9f89 3d93 9288
00000010: e3e2 8a87 8bcf 1b89 a368 4908 14ec bb08
00000020: c42e 0a89 899d 9f09 355c 6f09 2c72 bc09
00000030: ca29 c509 9cb6 be88 4749 0a88 7213 2989
00000040: 8c1d d308 c4f9 bb89 3962 a109 4d60 1c89
00000050: 4491 8f89 7341 6b09 10cf b488 bfad 7989
00000060: 6f1a dd08 c06c 3084 70c9 2789 bc6e 5688
00000070: 20fb 1c08 bc79 1609 2dc6 0f09 ac61 8109
00000080: d66c 7f08 ad2a 8409 118e 9308 350b e708
00000090: 8a7f 4307 6083 5688 df4a e288 debb 2389
000000a0: de67 2e88 1e3a 8207 dd02 8008 e1df 2109
000000b0: a489 a806 34fc 2108 8eb1 5d08 5ae0 6089
000000c0: f220 9088 2ac7 4189 7740 9e09 a5e6 e108
000000d0: fb5c d089 68e9 ba87 a348 5089 efb3 0509
000000e0: c99e 7889 829d d509 7a1f 1309 846a 6609
000000f0: d744 8889 a9e8 a609 0c35 0289 f046 2b09
00000100: d131 5a88 588d af86 682b b809 ae79 c209
00000110: 0ec7 2709 206d 8808 d6b9 8e08 279d 4f09
00000120: 8e6a 4f08 88e5 3309 a04e 7689 6e60 bb07
00000130: 6469 8886 1a58 1589 5876 5a89 37af 0689
00000140: df41 6788 c215 8988 213e 8889 7b1e 5487
00000150: 4a8d 5d89 70c8 8308 c8b0 6388 2a29 2b08
00000160: c7ea ab07 6b56 8b88 5e71 4908 8af5 f607
00000170: 370e 6989 a2c9 b006 17ee 8c08 789f 2b09
00000180: 882e 9708 ad2d 0408 b01f 4f07 83e5 3788
00000190: f014 8809 5c35 9d89 ad86 d507 51e4 3489
000001a0: b849 8a88 07a1 5d88 13c6 e187 46b0 0609
000001b0: 6a0f 2389 7a92 1c09 9f7d e888 9683 9409
000001c0: 7516 4f07 8500 c789 9453 9c08 7c9c 8e07
000001d0: bb5d a008 84e1 5b09 0cf3 8d09 6163 6089
000001e0: d1ea eb09 b92a 8888 6423 a109 585f d789
000001f0: 2fa7 8d09 cdd2 8f89 bab3 3b09 a3b8 1c89
00000200: 3639 6909 b227 ee89 e28b a83b bb52 f5bb
00000210: ed80 c909 dcd5 2089 3803 ca88 c2d9 b9bb
00000220: 9a72 9588 6ee4 e809 24e9 bd06 7306 90ba
00000230: e0eb a83b 1af1 04bc cf37 583b d660 9a88
00000240: 46b1 df3b b751 4709 4a57 713b 9dc0 68bc
00000250: 416f e687 d33b 7987 86fd 03bc b969 a23b
00000260: 6e85 c8bb 4a48 9e09 a630 7f09 0ce4 993b
00000270: 433c b53b 7bf3 ac3b 4859 0e89 18a3 ab3b
00000280: 316a 7588 5a1c 9d3b 8047 b03b 04d9 84bc
00000290: 97d3 b909 64c3 b23b 6ac7 d407 652e 6189
000002a0: 3c94 2bbc b87c 06bc c31a 693b b09c 9687
000002b0: e804 b93b 1d1d 8c89 5efe 7e88 b342 a33b
000002c0: f683 86bb 2a8b 8589 a8be dd89 fc55 3d8a
000002d0: fa2d a409 a165 a53b 9800 bd3b b1cc a93b
000002e0: aae3 6b09 087b 5308 9b31 d807 5cd6 aa3b
000002f0: 8e7a 0a89 04f7 338a 63c9 843b ecfa 4787
00000300: 3073 3f89 a831 8b09 5475 5c89 09f7 a809
00000310: f292 ad3b dfb1 8808 7b5f ebbb b088 b689
00000320: 4a11 2608 4028 b93b 89b6 8689 0a94 7488
00000330: 4435 5088 50ea 76bc ccd4 ab3b 15c4 b788
00000340: 00da 5187 a842 7f3b 6d44 1188 94b8 1509
00000350: f5eb 953b 917d 9709 8547 14bc 6888 30bc
00000360: 15ce b83b 9b22 2309 c2ea aa3b 3496 01bc
00000370: bf26 913b a8de 6a88 f114 28bc bf08 d688
00000380: c5f9 8008 4a14 19bb 7c0f b73b f3a3 af3b
00000390: e588 4189 3d97 af3b 82f2 2589 4467 e406
000003a0: 65c3 4ebc 3772 99bb 7643 9b09 0cac 9309
000003b0: f84b c709 2518 278a 1fc7 e309 0442 be3b
000003c0: dab7 2b08 6884 9487 57c4 2b87 c674 09bc
000003d0: bdc6 913b a741 5888 098d b487 4e1b 1089
000003e0: 9dd7 8909 f1b0 8c09 9286 de86 58f2 9409
000003f0: 18ce b43b 6770 8e09 62e0 2b88 9bca 7dbc
1.1131284e-34 -1.445873e-35 -3.8346844e-33 -8.821671e-34 -2.0897284e-34 -1.8755033e-33 6.0609237e-34 1.1310155e-33
-1.6633135e-33 3.8426003e-33 2.8811934e-33 4.536672e-33 4.7465323e-33 -1.147814e-33 -4.1614e-34 -2.0351778e-33
1.2706047e-33 -4.525349e-33 3.885171e-33 -1.8823097e-33 -3.4562605e-33 2.831787e-33 -1.0882036e-33 -3.005398e-33
1.3307168e-33 -2.0738636e-36 -2.019661e-33 -6.452845e-34 4.723974e-34 1.8112832e-33 1.730618e-33 3.114747e-33
7.6864207e-34 3.1817976e-33 8.88064e-34 1.3905442e-33 1.470765e-34 -6.4552713e-34 -1.3619482e-33 -1.9708746e-33
-5.2483316e-34 1.9594384e-34 7.704393e-34 1.9484937e-33 6.339682e-35 4.874564e-34 6.6713483e-34 -2.7068509e-33
-8.67443e-34 -2.3325176e-33 3.809774e-33 1.3595919e-33 -5.0161617e-33 -2.8123353e-34 -2.5071243e-33 1.6093897e-33
-2.9926575e-33 5.1426004e-33 1.7709282e-33 2.7735326e-33 -3.2805546e-33 4.018184e-33 -1.5673123e-33 2.0616731e-33
-6.5660548e-34 -6.603537e-35 4.4337208e-33 4.681823e-33 2.0195489e-33 8.210857e-34 8.590004e-34 2.4990611e-33
6.241705e-34 2.1654266e-33 -2.9648142e-33 2.819331e-34 -5.131237e-35 -1.7976648e-33 -2.629644e-33 -1.6212049e-33
-6.9591465e-34 -8.250503e-34 -3.2799235e-33 -1.5958065e-34 -2.6668341e-33 7.931398e-34 -6.8518133e-34 5.150683e-34
2.586721e-34 -8.386075e-34 6.06195e-34 3.715828e-34 -2.8053039e-33 6.6500115e-35 8.481918e-34 2.0658358e-33
9.098921e-34 3.9775997e-34 1.5582261e-34 -5.533935e-34 3.27605e-33 -3.7846554e-33 3.2127833e-34 -2.1774066e-33
-8.322904e-34 -6.6694055e-34 -3.3970655e-34 1.6212547e-33 -1.9627659e-33 1.884669e-33 -1.39925255e-33 3.5753447e-33
1.5579549e-34 -4.7907996e-33 9.408558e-34 2.1457759e-34 9.651686e-34 2.6467203e-33 3.4173075e-33 -2.7009747e-33
5.6795012e-33 -8.195246e-34 3.879262e-33 -5.1849028e-33 3.4101734e-33 -3.4624234e-33 2.2593813e-33 -1.8864633e-33
2.8073255e-33 -5.7333745e-33 0.0051436285 -0.007486669 4.851023e-33 -1.9359856e-33 -1.21581895e-33 -0.0056717107
-8.994554e-34 5.6066783e-33 7.143647e-35 -0.001098825 0.0051550716 -0.008114124 0.003299225 -9.291304e-34
0.0068265526 2.3992176e-33 0.003682571 -0.014206079 -3.4671943e-34 -1.8750259e-34 -0.00805605 0.004956451
-0.0061194217 3.8105097e-33 3.0717383e-33 0.0046963748 0.0055308654 0.0052780486 -1.7134608e-33 0.005237948
-7.3851833e-34 0.0047946395 0.005379617 -0.016216762 4.4736108e-33 0.0054554213 3.201542e-34 -2.7105204e-33
-0.010472354 -0.008208446 0.003556893 -2.2661584e-34 0.005646337 -3.3731152e-33 -7.673435e-34 0.0049823164
-0.0041050864 -3.2149455e-33 -5.3383107e-33 -9.116191e-33 3.95248e-33 0.0050475155 0.005767893 0.005181872
2.8394143e-33 6.3640125e-34 3.2529223e-34 0.005213542 -1.666877e-33 -8.664995e-33 0.0040523275 -1.5044835e-34
-2.304495e-33 3.350973e-33 -2.6536704e-33 4.067684e-33 0.0052970583 8.22702e-34 -0.007183013 -4.3943447e-33
4.997413e-34 0.00565055 -3.243098e-33 -7.36001e-34 -6.2655337e-34 -0.015070513 0.005243873 -1.10600105e-33
-1.5787477e-34 0.0038949642 -4.3714784e-34 1.802201e-33 0.0045752474 3.647001e-33 -0.009050255 -0.010774709
0.0056398013 1.9636683e-33 0.0052159736 -0.007909346 0.0044296677 -7.0678545e-34 -0.010258899 -1.2881713e-33
7.76244e-34 -0.002335804 0.0055865627 0.0053601204 -2.3295897e-33 0.005358605 -1.997518e-33 8.5915803e-35
-0.012619828 -0.004682805 3.7378333e-33 3.5550755e-33 4.7978948e-33 -8.0452986e-33 5.4835515e-33 0.0058062095
5.1674557e-34 -2.2346386e-34 -1.2922309e-34 -0.008389657 0.0044487403 -6.507731e-34 -2.7166283e-34 -1.7346208e-33
3.3184312e-33 3.387017e-33 -8.370485e-35 3.5857603e-33 0.0055177324 3.429096e-33 -5.17222e-34 -0.015490199

sequential/dense_1/MatMul f4 [1, 128]
00000000: ef6b ecbd 1c2a 89be f53f 5b3e f2d2 0bbf
00000010: dfab 1fbe ccf9 09bf 01d6 5b3c 94a7 833e
00000020: 2fe1 d43d 15f4 8d3d bcac 3e3e 3315 40bd
00000030: 6272 e93c f6ec 893e 2ba2 36bd 155d 0ebf
00000040: 83db 48bd 6a9d 373e 6711 133e 8b30 423e
00000050: aef7 e3be cb94 07bf d02e 4a3e 0632 1e3e
00000060: 2996 173e ba1f cabc 5d70 453e 8f93 16be
00000070: 2948 10bf 94e6 06bf 1088 5a3e fc24 333e
00000080: d82c 563c 3c22 853d 0891 cebe ba30 ecbe
00000090: 9c49 e43d 1a73 553e c99b 3c3e 5419 9e3d
000000a0: 033b d3be 1474 6b3e 7c27 703e 8a95 653e
000000b0: ce61 f6be bd9b 663e 9fcc 0abe 2503 d8be
000000c0: 4b42 973e bf1a b3be b146 4d3e 8b31 e4be
000000d0: e6f2 08bf 6ad0 733e 6869 543d 60a7 d43d
000000e0: c478 313e 76ab 853e 36b0 0abf 90c2 823e
000000f0: 4fc9 c43d 9c45 cfbc 2607 edbe a135 c9bd
00000100: 8788 d8be c6aa 623e f8d5 d2bd 8166 77bc
00000110: c036 13bf aa15 7b3e f3c3 533e cecd 7e3e
00000120: d330 bdbe ee71 dcbe 6a6f 01bf 3da4 3c3e
00000130: 86f3 d3be bd65 2bbd 0a6c 893e 7272 bebe
00000140: 348b 7a3e dc1f c83d 986e 21bd df6a 423e
00000150: 0e4a 2f3e 393d 783e 7a52 273e 978e 713e
00000160: 98d4 f4be d740 b03d 6599 3f3e 94bf 763e
00000170: 7b27 0fbf 0fed 9d3c e07d 6d3e b3c3 3dbe
00000180: 0819 c8be 2cc9 893e bd6a e9be cc52 553e
00000190: ed46 dbbe c32d d6be 7979 febd 0c00 f2be
000001a0: 1bdd edbe 3e9d 0ebf 8574 cd39 88f9 32be
000001b0: 1967 f4be 5ec0 283e ab37 d13b b95b d8be
000001c0: 0c36 07bf c47e 9a3e 4966 9c3e 43ef 8d3e
000001d0: 1e9a 933e 2a5f cdbe 3145 9e3d 4061 523d
000001e0: 1348 b6be 32f8 11bf 8791 c2be 63f3 03bf
000001f0: e8fa 0dbc f79f efbe 52a6 493e 8117 b9be
-0.11544024 -0.2678994 0.21411116 -0.5461875 -0.15592907 -0.53896785 0.013417722 0.2571379
0.10394513 0.069313206 0.1862058 -0.046895217 0.028496925 0.269386 -0.04458825 -0.5561078
-0.049037468 0.17931142 0.14362107 0.1896383 -0.44524902 -0.52961415 0.1974442 0.1544877
0.14803375 -0.024673332 0.19281144 -0.14704727 -0.5636011 -0.52695584 0.21340966 0.17494577
0.013072215 0.0650067 -0.40345025 -0.46130925 0.111468524 0.20844689 0.18418802 0.07719675
-0.4125596 0.22993499 0.23452562 0.22420326 -0.48121494 0.22520347 -0.13554619 -0.421899
0.29542765 -0.34981343 0.20046498 -0.44569048 -0.53495634 0.23809972 0.051858336 0.10383487
0.17331225 0.26107377 -0.54175127 0.25539064 0.09608709 -0.025301747 -0.46294516 -0.09824682
-0.42291662 0.22135457 -0.102947176 -0.015100122 -0.57505417 0.24519983 0.20680217 0.24883196
-0.36951312 -0.4305567 -0.5056063 0.18422027 -0.4139673 -0.041845072 0.2684024 -0.3719669
0.24467164 0.09771702 -0.03941211 0.1898608 0.17118093 0.24242105 0.16340056 0.2358955
-0.47818446 0.08606117 0.18710859 0.24096519 -0.5591962 0.019278077 0.23192549 -0.18531685
-0.39081597 0.26911294 -0.45589247 0.20832366 -0.4282755 -0.41831788 -0.12425513 -0.4726566
-0.46457753 -0.5570868 0.0003918746 -0.17478001 -0.47734907 0.16479632 0.00638481 -0.4225748
-0.52816844 0.3017484 0.30546787 0.27721605 0.2882852 -0.40111667 0.07728041 0.051362276
-0.35601863 -0.5701934 -0.38001654 -0.51543254 -0.008665778 -0.4680173 0.19692352 -0.36150745
